2020-05-13 16:50:26,232 - ===> Random split train, validation and eval dataset
2020-05-13 16:50:29,199 - -----n_flat_features_per_frame=30
2020-05-13 16:50:30,109 - ### Model summary below###
 CDCK2(
  (convs): ModuleList(
    (0): Conv2d(12, 24, kernel_size=(2, 2), stride=(1, 1), padding=(2, 2), groups=12, bias=False)
    (1): Conv2d(24, 128, kernel_size=(2, 2), stride=(1, 1), padding=(2, 2), bias=False)
    (2): Conv2d(128, 512, kernel_size=(2, 2), stride=(1, 1), padding=(2, 2), bias=False)
    (3): Conv2d(512, 128, kernel_size=(2, 2), stride=(1, 1), padding=(2, 2), bias=False)
    (4): Conv2d(128, 24, kernel_size=(2, 2), stride=(1, 1), padding=(2, 2), bias=False)
  )
  (bns): ModuleList(
    (0): BatchNorm2d(24, eps=1e-05, momentum=0.1, affine=True, track_running_stats=True)
    (1): BatchNorm2d(128, eps=1e-05, momentum=0.1, affine=True, track_running_stats=True)
    (2): BatchNorm2d(512, eps=1e-05, momentum=0.1, affine=True, track_running_stats=True)
    (3): BatchNorm2d(128, eps=1e-05, momentum=0.1, affine=True, track_running_stats=True)
    (4): BatchNorm2d(24, eps=1e-05, momentum=0.1, affine=True, track_running_stats=True)
  )
  (maxpooling): MaxPool2d(kernel_size=2, stride=1, padding=0, dilation=1, ceil_mode=False)
  (ReLU): ReLU(inplace=True)
  (softmax): Softmax(dim=None)
  (lsoftmax): LogSoftmax()
  (linear): Linear(in_features=30, out_features=16, bias=True)
  (gru): GRU(16, 16, batch_first=True)
  (Wk): ModuleList(
    (0): Linear(in_features=16, out_features=16, bias=True)
    (1): Linear(in_features=16, out_features=16, bias=True)
    (2): Linear(in_features=16, out_features=16, bias=True)
    (3): Linear(in_features=16, out_features=16, bias=True)
  )
)

2020-05-13 16:50:30,109 - ===> Model total parameter: 553808

2020-05-13 16:50:31,633 - Train Epoch: 1 [0/17295 (0%)]	lr:5.00000	Accuracy: 0.2500	Loss: 4.230492
2020-05-13 16:50:33,473 - Train Epoch: 1 [360/17295 (2%)]	lr:5.00000	Accuracy: 0.0000	Loss: 4.428203
2020-05-13 16:50:35,281 - Train Epoch: 1 [720/17295 (4%)]	lr:5.00000	Accuracy: 0.1667	Loss: 5.313528
…
