2020-05-13 17:56:18,151 - ===> Random split train, validation and eval dataset
2020-05-13 17:56:21,214 - -----n_flat_features_per_frame=60
2020-05-13 17:56:22,158 - ### Model summary below###
 CDCK2(
  (convs): ModuleList(
    (0): Conv2d(12, 48, kernel_size=(2, 2), stride=(1, 1), padding=(2, 2), groups=12, bias=False)
    (1): Conv2d(48, 96, kernel_size=(2, 2), stride=(1, 1), padding=(2, 2), groups=12, bias=False)
    (2): Conv2d(96, 384, kernel_size=(2, 2), stride=(1, 1), padding=(2, 2), groups=12, bias=False)
    (3): Conv2d(384, 96, kernel_size=(2, 2), stride=(1, 1), padding=(2, 2), groups=12, bias=False)
    (4): Conv2d(96, 48, kernel_size=(2, 2), stride=(1, 1), padding=(2, 2), groups=12, bias=False)
  )
  (bns): ModuleList(
    (0): BatchNorm2d(48, eps=1e-05, momentum=0.1, affine=True, track_running_stats=True)
    (1): BatchNorm2d(96, eps=1e-05, momentum=0.1, affine=True, track_running_stats=True)
    (2): BatchNorm2d(384, eps=1e-05, momentum=0.1, affine=True, track_running_stats=True)
    (3): BatchNorm2d(96, eps=1e-05, momentum=0.1, affine=True, track_running_stats=True)
    (4): BatchNorm2d(48, eps=1e-05, momentum=0.1, affine=True, track_running_stats=True)
  )
  (maxpooling): MaxPool2d(kernel_size=2, stride=1, padding=0, dilation=1, ceil_mode=False)
  (ReLU): ReLU(inplace=True)
  (softmax): Softmax(dim=None)
  (lsoftmax): LogSoftmax()
  (linear): Linear(in_features=60, out_features=8, bias=True)
  (gru): GRU(8, 8, batch_first=True)
  (Wk): ModuleList(
    (0): Linear(in_features=8, out_features=8, bias=True)
    (1): Linear(in_features=8, out_features=8, bias=True)
    (2): Linear(in_features=8, out_features=8, bias=True)
    (3): Linear(in_features=8, out_features=8, bias=True)
  )
)

2020-05-13 17:56:22,158 - ===> Model total parameter: 30392

2020-05-13 17:56:23,804 - Train Epoch: 1 [0/17295 (0%)]	lr:1.00000	Accuracy: 0.1667	Loss: 7.861391
2020-05-13 17:56:25,611 - Train Epoch: 1 [360/17295 (2%)]	lr:1.00000	Accuracy: 0.0833	Loss: 9.737434
2020-05-13 17:56:27,292 - Train Epoch: 1 [720/17295 (4%)]	lr:1.00000	Accuracy: 0.0000	Loss: 8.589045
…
