2020-05-13 17:31:58,383 - ===> Random split train, validation and eval dataset
2020-05-13 17:32:01,299 - -----n_flat_features_per_frame=60
2020-05-13 17:32:02,265 - ### Model summary below###
 CDCK2(
  (convs): ModuleList(
    (0): Conv2d(12, 48, kernel_size=(2, 2), stride=(1, 1), padding=(2, 2), groups=12, bias=False)
    (1): Conv2d(48, 128, kernel_size=(2, 2), stride=(1, 1), padding=(2, 2), bias=False)
    (2): Conv2d(128, 256, kernel_size=(2, 2), stride=(1, 1), padding=(2, 2), bias=False)
    (3): Conv2d(256, 128, kernel_size=(2, 2), stride=(1, 1), padding=(2, 2), bias=False)
    (4): Conv2d(128, 48, kernel_size=(2, 2), stride=(1, 1), padding=(2, 2), bias=False)
  )
  (bns): ModuleList(
    (0): BatchNorm2d(48, eps=1e-05, momentum=0.1, affine=True, track_running_stats=True)
    (1): BatchNorm2d(128, eps=1e-05, momentum=0.1, affine=True, track_running_stats=True)
    (2): BatchNorm2d(256, eps=1e-05, momentum=0.1, affine=True, track_running_stats=True)
    (3): BatchNorm2d(128, eps=1e-05, momentum=0.1, affine=True, track_running_stats=True)
    (4): BatchNorm2d(48, eps=1e-05, momentum=0.1, affine=True, track_running_stats=True)
  )
  (maxpooling): MaxPool2d(kernel_size=2, stride=1, padding=0, dilation=1, ceil_mode=False)
  (ReLU): ReLU(inplace=True)
  (softmax): Softmax(dim=None)
  (lsoftmax): LogSoftmax()
  (linear): Linear(in_features=60, out_features=8, bias=True)
  (gru): GRU(8, 8, batch_first=True)
  (Wk): ModuleList(
    (0): Linear(in_features=8, out_features=8, bias=True)
    (1): Linear(in_features=8, out_features=8, bias=True)
    (2): Linear(in_features=8, out_features=8, bias=True)
    (3): Linear(in_features=8, out_features=8, bias=True)
  )
)

2020-05-13 17:32:02,265 - ===> Model total parameter: 313912

2020-05-13 17:32:03,922 - Train Epoch: 1 [0/17295 (0%)]	lr:1.00000	Accuracy: 0.0833	Loss: 7.388486
2020-05-13 17:32:05,710 - Train Epoch: 1 [360/17295 (2%)]	lr:1.00000	Accuracy: 0.1667	Loss: 9.884369
2020-05-13 17:32:07,533 - Train Epoch: 1 [720/17295 (4%)]	lr:1.00000	Accuracy: 0.0833	Loss: 10.038985
…
