2020-05-13 18:17:16,125 - ===> Random split train, validation and eval dataset
2020-05-13 18:17:17,374 - ### Model summary below###
 CDCK2(
  (convs): ModuleList(
    (0): Conv2d(12, 12, kernel_size=(2, 2), stride=(1, 1), padding=(2, 2), groups=12, bias=False)
    (1): Conv2d(12, 48, kernel_size=(2, 2), stride=(1, 1), padding=(2, 2), groups=12, bias=False)
    (2): Conv2d(48, 96, kernel_size=(2, 2), stride=(1, 1), padding=(2, 2), groups=12, bias=False)
    (3): Conv2d(96, 48, kernel_size=(2, 2), stride=(1, 1), padding=(2, 2), groups=12, bias=False)
    (4): Conv2d(48, 12, kernel_size=(2, 2), stride=(1, 1), padding=(2, 2), groups=12, bias=False)
  )
  (bns): ModuleList(
    (0): BatchNorm2d(12, eps=1e-05, momentum=0.1, affine=True, track_running_stats=True)
    (1): BatchNorm2d(48, eps=1e-05, momentum=0.1, affine=True, track_running_stats=True)
    (2): BatchNorm2d(96, eps=1e-05, momentum=0.1, affine=True, track_running_stats=True)
    (3): BatchNorm2d(48, eps=1e-05, momentum=0.1, affine=True, track_running_stats=True)
    (4): BatchNorm2d(12, eps=1e-05, momentum=0.1, affine=True, track_running_stats=True)
  )
  (maxpooling): MaxPool2d(kernel_size=2, stride=1, padding=0, dilation=1, ceil_mode=False)
  (ReLU): ReLU(inplace=True)
  (softmax): Softmax(dim=None)
  (lsoftmax): LogSoftmax()
)

2020-05-13 18:17:17,374 - ===> Model total parameter: 3936

2020-05-13 18:17:17,532 - 

Resume from checkpoint: /media/DISK1/cpcSurvival/logs/cpc/cdck2/setting5-2020-05-13_18_03_01-model_best.pth
…
