2020-05-13 16:47:56,588 - ===> Random split train, validation and eval dataset
2020-05-13 16:47:59,414 - -----n_flat_features_per_frame=60
2020-05-13 16:48:00,360 - ### Model summary below###
 CDCK2(
  (convs): ModuleList(
    (0): Conv2d(12, 96, kernel_size=(2, 2), stride=(1, 1), padding=(2, 2), groups=12, bias=False)
    (1): Conv2d(96, 512, kernel_size=(2, 2), stride=(1, 1), padding=(2, 2), bias=False)
    (2): Conv2d(512, 128, kernel_size=(2, 2), stride=(1, 1), padding=(2, 2), bias=False)
    (3): Conv2d(128, 64, kernel_size=(2, 2), stride=(1, 1), padding=(2, 2), bias=False)
    (4): Conv2d(64, 48, kernel_size=(2, 2), stride=(1, 1), padding=(2, 2), bias=False)
  )
  (bns): ModuleList(
    (0): BatchNorm2d(96, eps=1e-05, momentum=0.1, affine=True, track_running_stats=True)
    (1): BatchNorm2d(512, eps=1e-05, momentum=0.1, affine=True, track_running_stats=True)
    (2): BatchNorm2d(128, eps=1e-05, momentum=0.1, affine=True, track_running_stats=True)
    (3): BatchNorm2d(64, eps=1e-05, momentum=0.1, affine=True, track_running_stats=True)
    (4): BatchNorm2d(48, eps=1e-05, momentum=0.1, affine=True, track_running_stats=True)
  )
  (maxpooling): MaxPool2d(kernel_size=2, stride=1, padding=0, dilation=1, ceil_mode=False)
  (ReLU): ReLU(inplace=True)
  (softmax): Softmax(dim=None)
  (lsoftmax): LogSoftmax()
  (linear): Linear(in_features=60, out_features=16, bias=True)
  (gru): GRU(16, 16, batch_first=True)
  (Wk): ModuleList(
    (0): Linear(in_features=16, out_features=16, bias=True)
    (1): Linear(in_features=16, out_features=16, bias=True)
    (2): Linear(in_features=16, out_features=16, bias=True)
    (3): Linear(in_features=16, out_features=16, bias=True)
  )
)

2020-05-13 16:48:00,360 - ===> Model total parameter: 509584

2020-05-13 16:48:01,813 - Train Epoch: 1 [0/17295 (0%)]	lr:100.00000	Accuracy: 0.2500	Loss: 7.962014
2020-05-13 16:48:03,729 - Train Epoch: 1 [360/17295 (2%)]	lr:100.00000	Accuracy: 0.0833	Loss: 10.724349
2020-05-13 16:48:05,595 - Train Epoch: 1 [720/17295 (4%)]	lr:100.00000	Accuracy: 0.0000	Loss: 7.216615
…
