2020-06-18 11:05:31,571 - ===> use benchmark strategy to split train, validation and eval dataset
2020-06-18 11:05:33,002 - ### Model summary below###
 CDCK3(
  (convs): ModuleList(
    (0): Conv2d(1, 128, kernel_size=(2, 76), stride=(1, 1))
    (1): Conv2d(1, 256, kernel_size=(2, 128), stride=(1, 1))
    (2): Conv2d(1, 512, kernel_size=(2, 256), stride=(1, 1))
    (3): Conv2d(1, 1024, kernel_size=(2, 512), stride=(1, 1))
    (4): Conv2d(1, 512, kernel_size=(2, 1024), stride=(1, 1))
    (5): Conv2d(1, 256, kernel_size=(2, 512), stride=(1, 1))
    (6): Conv2d(1, 128, kernel_size=(2, 256), stride=(1, 1))
    (7): Conv2d(1, 32, kernel_size=(2, 128), stride=(1, 1))
    (8): Conv2d(1, 16, kernel_size=(2, 32), stride=(1, 1))
  )
  (bns): ModuleList(
    (0): BatchNorm2d(128, eps=1e-05, momentum=0.1, affine=True, track_running_stats=True)
    (1): BatchNorm2d(256, eps=1e-05, momentum=0.1, affine=True, track_running_stats=True)
    (2): BatchNorm2d(512, eps=1e-05, momentum=0.1, affine=True, track_running_stats=True)
    (3): BatchNorm2d(1024, eps=1e-05, momentum=0.1, affine=True, track_running_stats=True)
    (4): BatchNorm2d(512, eps=1e-05, momentum=0.1, affine=True, track_running_stats=True)
    (5): BatchNorm2d(256, eps=1e-05, momentum=0.1, affine=True, track_running_stats=True)
    (6): BatchNorm2d(128, eps=1e-05, momentum=0.1, affine=True, track_running_stats=True)
    (7): BatchNorm2d(32, eps=1e-05, momentum=0.1, affine=True, track_running_stats=True)
    (8): BatchNorm2d(16, eps=1e-05, momentum=0.1, affine=True, track_running_stats=True)
  )
  (Wk): ModuleList(
    (0): Linear(in_features=16, out_features=16, bias=True)
    (1): Linear(in_features=16, out_features=16, bias=True)
    (2): Linear(in_features=16, out_features=16, bias=True)
    (3): Linear(in_features=16, out_features=16, bias=True)
    (4): Linear(in_features=16, out_features=16, bias=True)
    (5): Linear(in_features=16, out_features=16, bias=True)
    (6): Linear(in_features=16, out_features=16, bias=True)
    (7): Linear(in_features=16, out_features=16, bias=True)
    (8): Linear(in_features=16, out_features=16, bias=True)
    (9): Linear(in_features=16, out_features=16, bias=True)
    (10): Linear(in_features=16, out_features=16, bias=True)
    (11): Linear(in_features=16, out_features=16, bias=True)
    (12): Linear(in_features=16, out_features=16, bias=True)
    (13): Linear(in_features=16, out_features=16, bias=True)
    (14): Linear(in_features=16, out_features=16, bias=True)
    (15): Linear(in_features=16, out_features=16, bias=True)
    (16): Linear(in_features=16, out_features=16, bias=True)
    (17): Linear(in_features=16, out_features=16, bias=True)
    (18): Linear(in_features=16, out_features=16, bias=True)
    (19): Linear(in_features=16, out_features=16, bias=True)
    (20): Linear(in_features=16, out_features=16, bias=True)
    (21): Linear(in_features=16, out_features=16, bias=True)
    (22): Linear(in_features=16, out_features=16, bias=True)
    (23): Linear(in_features=16, out_features=16, bias=True)
    (24): Linear(in_features=16, out_features=16, bias=True)
    (25): Linear(in_features=16, out_features=16, bias=True)
    (26): Linear(in_features=16, out_features=16, bias=True)
    (27): Linear(in_features=16, out_features=16, bias=True)
    (28): Linear(in_features=16, out_features=16, bias=True)
    (29): Linear(in_features=16, out_features=16, bias=True)
  )
  (softmax): Softmax(dim=None)
  (lsoftmax): LogSoftmax()
  (gru): GRU(16, 16, batch_first=True)
)

2020-06-18 11:05:33,002 - ===> Model total parameter: 2799568

2020-06-18 11:05:41,564 - Train Epoch: 1 [0/14681 (0%)]	lr:0.00099	Accuracy: 0.0150	Loss: 5.516625
2020-06-18 11:05:52,711 - Train Epoch: 1 [6000/14681 (41%)]	lr:0.00099	Accuracy: 0.0100	Loss: 5.336917
…
